skeleton_mesh_generation/weights_with_norm/weights-gae.pth (torch, 582656 bytes, 55 tensors)

conv0.weight f4 [16, 512, 1]
-0.032189686 -0.051758662 -0.029753007 0.020271651 -0.05067276 -0.030292304 -0.0020397939 -0.0386094
0.00011246318 0.003119286 -0.021715123 0.029737107 0.006623165 -0.015275956 -0.011202934 -0.0070210183
0.007050048 0.022695776 -0.026828973 -0.016427197 -0.04514147 0.030210566 -0.06455193 0.0149978595
-0.025893483 0.005623374 0.008850616 0.025494954 -0.024745237 0.018027293 -0.03891661 0.02709697
-0.052091375 -0.014780232 -0.02692868 0.007937478 0.0154751185 -0.04127893 -0.046073772 -0.06085413
-0.004121457 0.019316074 -0.035231702 0.00021182255 -0.056141734 0.010120857 -0.04592614 -0.017299777
-0.009549307 0.019031666 -0.011451702 -0.03707105 0.033351067 -0.07086857 0.0041955677 -0.027095798
-0.05896081 0.04000702 -0.065357484 -0.029542362 -0.0061859735 -0.0070869005 0.033876255 -0.06893813
-0.03502921 -0.03675921 -0.012444172 -0.057020225 0.0064002215 -0.043534573 0.03886032 0.016610429
0.00497871 -0.027709506 0.011408647 0.032542415 -0.02203854 -0.014698209 0.012332846 -0.0027052143
-0.05223837 -0.016321188 -0.008189255 0.017219089 -0.010270907 -0.056128107 -0.039049618 0.03757825
0.024636606 -0.0038887435 -0.042168364 0.0042365035 0.027932826 -0.020831088 0.0023353097 -0.015286646
0.024568755 0.0010174604 0.0027974336 -0.021001546 0.03394258 -0.0025896118 -0.044806957 -0.0016000622
-0.026180318 -0.046623886 -0.030149788 -0.06312662 -0.023761723 -0.04597933 0.004734311 -0.0119296
-0.0044882367 -0.051235646 -0.03996404 -0.014649426 0.039433837 -0.004973449 -0.039474115 -0.07029134
-0.016746894 -0.021900749 -0.03328076 0.009086289 -0.015484099 -0.02210642 0.0441578 0.03280533
-0.011863239 -0.019759163 -0.0264843 0.005313588 -0.049158286 0.034433328 -0.068171404 -0.023882546
0.028145328 -0.06443623 -0.033021376 0.03666079 0.022837864 -0.0052112765 -0.03628057 -0.013370424
0.028460974 -0.0032200895 -0.008771967 -0.021072432 -0.053191856 -0.031116078 -0.031445257 -0.03250611
0.023893122 -0.020231947 -0.049901344 -0.04959943 -0.028600799 0.003339464 0.0046270033 0.021103008
-0.007562782 -0.02535654 -0.026794985 0.004488545 0.016195022 -0.0073519046 0.00685627 -0.051074754
0.04606729 0.019274868 -0.03702286 0.0040079216 -0.054701854 0.017404495 -0.053453777 0.019269098
0.044843167 0.029408379 0.030156577 0.005720214 -0.01812701 -0.03550718 -0.021425137 -0.011937286
0.011229515 -0.037082553 -0.015438499 0.017078817 0.022445004 -0.039399672 0.0031883966 0.010866309
-0.055367038 -0.01038373 -0.015845105 -0.0010350134 -0.048980087 -0.024733348 -0.020450847 0.02910303
-0.032005377 -0.033920772 -0.025432413 0.018501494 -0.031350397 0.0046101552 -0.011750301 -0.019866923
-0.024616878 -0.04383376 0.024324099 -0.019752886 0.025884701 -0.05266874 -0.036782183 -0.035547975
0.033105694 -0.018156096 -0.047752764 -0.017353395 -0.008066127 -0.027898027 0.018787224 -0.067296974
0.020622158 -0.0521941 0.011367113 -0.037892375 -0.0010540544 -0.03889156 -0.0440816 0.024086878
0.001513631 -0.009681433 0.02769847 -0.023005592 -0.018290583 0.0047570956 -0.0026887145 0.009563309
0.029192626 0.014283727 0.028038267 0.024910605 -0.029459806 -0.006820683 0.035966996 -0.008137581
-0.001464908 0.030673653 -0.035844523 0.03722991 -0.043834433 0.03284892 -0.020341342 -0.03716956
00000000: 55d9 03bd e400 54bd 94bc f3bc bc10 a63c
00000010: 3d8e 4fbd 9127 f8bc 10ae 05bb e424 1ebd
00000020: 36da eb38 ef6c 4c3b eae3 b1bc 3c9b f33c
00000030: 2307 d93b 0148 7abc 838c 37bc 9210 e6bb
00000040: 1704 e73b 7eec b93c 6fc8 dbbc 5492 86bc
00000050: 43e6 38bd 267c f73c cd33 84bd 95b9 753c
00000060: 921e d4bc 4844 b83b 2d02 113c cbda d03c
00000070: 86b6 cabc f9ad 933c 0667 1fbd 77fa dd3c
00000080: c45d 55bd c928 72bc 8999 dcbc 320c 023c
00000090: 5a8b 7d3c 1814 29bd dab7 3cbd 2e42 79bd
000000a0: 4a0d 87bb be3c 9e3c 1e4f 10bd af1c 5e39
000000b0: e0f4 65bd f3d1 253c 0c1d 3cbd 43b8 8dbc
000000c0: b274 1cbc 4ce8 9b3c eb9f 3bbc d0d7 17bd
000000d0: 219b 083d 8a23 91bd f97a 893b 02f8 ddbc
000000e0: e480 71bd 67de 233d 25da 85bd d302 f2bc
000000f0: b5b3 cabb 3b39 e8bb d4c1 0a3d 6f2f 8dbd
00000100: ca7a 0fbd d390 16bd a4e2 4bbc 0a8e 69bd
00000110: f3b8 d13b 4f51 32bd 002c 1f3d 9812 883c
00000120: 7224 a33b 0cff e2bc 55eb 3a3c 324b 053d
00000130: 2b8a b4bc c2d0 70bc b50f 4a3c f749 31bb
00000140: e7f7 55bd 03b4 85bc 3a2c 06bc 0c0f 8d3c
00000150: 4e47 28bc 96e6 65bd 7ef2 1fbd a7eb 193d
00000160: b5d2 c93c 4ada 7ebb bcb8 2cbd 5ed2 8a3b
00000170: 62d3 e43c f5a5 aabc ff0b 193b d774 7abc
00000180: 6a44 c93c 4e5c 853a 2655 373b 6f0b acbc
00000190: 6007 0b3d 7ab6 29bb 8087 37bd 2eb9 d1ba
000001a0: 1b78 d6bc b0f8 3ebd b0fc f6bc 8848 81bd
000001b0: f2a7 c2bc d254 3cbd 4722 9b3b 5e74 43bc
000001c0: 0f12 93bb 78dc 51bd 55b1 23bd 2504 70bc
000001d0: 6085 213d 50f8 a2bb 9caf 21bd e8f4 8fbd
000001e0: c830 89bc 3369 b3bc 6851 08bd a9de 143c
000001f0: 05b1 7dbc 8618 b5bc cfde 343d e25e 063d
00000200: 085e 42bc f8dd a1bc 9af5 d8bc 9b1d ae3b
00000210: 335a 49bd f609 0d3d 739d 8bbd 54a5 c3bc
00000220: 0891 e63c 24f7 83bd 6c41 07bd a029 163d
00000230: 7916 bb3c 5bc3 aabb ef9a 14bd 9f0f 5bbc
00000240: fd26 e93c 2308 53bb 4cb8 0fbc 18a0 acbc
00000250: b4df 59bd 25e7 febc becc 00bd 2025 05bd
00000260: 82bb c33c 78bd a5bc 5a65 4cbd c628 4bbd
00000270: 394c eabc e9da 5a3b 1e9e 973b 37e0 ac3c
00000280: 37d1 f7bb 85b8 cfbc 2881 dbbc a514 933b
00000290: 6cab 843c 3fe8 f0bb 90aa e03b c333 51bd
000002a0: 0eb1 3c3d 54e6 9d3c 48a5 17bd e254 833b
000002b0: 0d0f 60bd df93 8e3c 59f2 5abd 3ada 9d3c
000002c0: 78ad 373d d7e9 f03c ed0a f73c a270 bb3b
000002d0: 187f 94bc fa6f 11bd c583 afbc 9b94 43bc
000002e0: 00fc 373c e0e3 17bd c2f1 7cbc e0e8 8b3c
000002f0: 96de b73c 8d61 21bd 6bf4 503b 9a08 323c
00000300: 8cc8 62bd 8520 2abc 98cd 81bc 49a9 87ba
00000310: 589f 48bd 979d cabc 8988 a7bc 7a69 ee3c
00000320: 1218 03bd 82f0 0abd a357 d0bc 7290 973c
00000330: 4669 00bd c910 973b 5684 40bc f5bf a2bc
00000340: 56a9 c9bc 078b 33bd 5543 c73c ced0 a1bc
00000350: 270c d43c 2dbb 57bd eaa8 16bd c19a 11bd
00000360: d699 073d 18bc 94bc 6798 43bd b528 8ebc
00000370: ca27 04bc 678a e4bc aae7 993c ffd2 89bd
00000380: cdef a83c 7bc9 55bd 213d 3a3c 0935 1bbd
00000390: 3228 8aba c24c 1fbd e88e 34bd d851 c53c
000003a0: 0765 c63a e09e 1ebc e7e7 e23c 3976 bcbc
000003b0: 22d6 95bc 69e1 9b3b 2535 30bb 6daf 1c3c
000003c0: 6025 ef3c 4b06 6a3c 82b0 e53c 5311 cc3c
000003d0: b155 f1bc 0980 dfbb 2152 133d 7d53 05bc
000003e0: 2802 c0ba 5047 fb3c b5d1 12bd 647e 183d
000003f0: bc8b 33bd 978c 063d e3a2 a6bc 1c3f 18bd

bn0.weight f4 [16]
0.9710699 1.107688 1.0575563 1.1034405 1.1074365 1.042436 1.1088344 1.0010061
1.0189073 1.0631176 1.1325457 1.0688899 0.9942718 0.9553439 1.189773 1.0515696
00000000: 0998 783f b8c8 8d3f 015e 873f 8a3d 8d3f
00000010: 7bc0 8d3f 8b6e 853f 49ee 8d3f f820 803f
00000020: 8e6b 823f 3d14 883f 42f7 903f 62d1 883f
00000030: 9988 7e3f 6b91 743f 7b4a 983f d599 863f

bn0.bias f4 [16]
-0.9363752 0.48429364 0.86039984 0.86835235 -0.73606586 -0.37733725 0.5058104 1.6751927
1.4888202 0.82312155 0.82560515 -1.2805138 1.1625767 -0.8273607 0.40656155 -0.11206428
00000000: 49b6 6fbf 56f5 f73e 2a43 5c3f 574c 5e3f
00000010: d06e 3cbf 5932 c1be ca7c 013f b76c d63f
00000020: a991 be3f 18b8 523f dc5a 533f e0e7 a3bf
00000030: 50cf 943f e9cd 53bf d628 d03e f581 e5bd

conv1.fc.weight f4 [32, 20, 1]
-0.027151542 -0.23213592 -0.34269264 -0.027903723 0.17071638 0.052201588 -0.0928831 -0.30787167
-0.122435406 -0.17911708 0.04981939 0.25165525 0.0042049144 0.024464902 0.16742314 -0.09748359
0.086433575 -0.0190893 -0.03166442 -0.30232507 0.20215511 0.2418467 -0.19405529 -0.029638413
-0.05218171 0.052688517 -0.024055587 -0.28698343 -0.16465007 -0.34296373 -0.07349722 0.11783621
-0.042805996 0.13400233 0.41479626 -0.020649815 -0.05702885 -0.011998748 -0.010465588 0.07377198
0.098316856 -0.13567522 -0.13361412 -0.24005991 -0.03568733 0.081169926 0.017949406 -0.07508007
-0.005043145 0.12870947 -0.18992525 -0.115344055 0.36123854 0.2113118 0.32127634 0.06807331
-0.19022833 0.02521217 -0.011259959 -0.12588029 0.2803399 0.013225298 -0.2846773 0.14607765
0.2536134 0.36373284 -0.006845556 -0.43188956 -0.1391629 -0.060072083 -0.21551579 -0.27997917
0.05973547 -0.12996411 0.15876602 0.009764157 -0.24899973 0.07349842 0.0053408872 0.4489051
0.05571869 0.086677894 -0.015220671 0.2309895 0.045009777 -0.11143197 -0.21036734 -0.1510948
-0.34913948 -0.12106213 -0.10424099 0.008455967 0.17630583 -0.20772742 0.029732203 0.14403282
0.055913515 0.02493136 0.0041906647 0.80681324 0.0014667547 0.0883307 0.15792783 -0.07723962
0.057290982 0.24493787 0.20600687 0.097865455 0.15475619 0.17270915 0.057746917 -0.51417255
0.14629593 -0.017114457 -0.088578455 0.054440733 -0.14240687 0.054941524 0.015607326 0.30946144
0.041349772 0.12412434 0.12660757 -0.28097135 -0.07544491 0.014426368 -0.0019008706 -0.33439517
-0.014923076 -0.23828137 -0.09243277 -0.23595615 -0.14229676 0.26178324 0.20144996 0.19486098
0.071512386 -0.06541724 0.012955822 0.07612063 0.28430492 -0.031865306 0.13746838 0.07146074
0.0055966694 -0.14300652 -0.25070912 -0.0050167413 -0.065767184 0.10012975 -0.21069023 0.14877312
-0.27753437 0.032149553 0.3516203 -0.1986058 0.10822376 0.0012531792 -0.0058812746 -0.14919935
0.29686412 -0.057709865 0.053565715 -0.109658554 0.03902196 0.10822594 -0.29789114 -0.4631062
0.36355254 0.14581314 -0.24895814 -0.1469359 -0.052052177 -0.20567906 -0.013529308 -0.15274863
-0.050732736 -0.044819176 0.013113498 -0.028191265 0.03939571 0.0880516 -0.15943861 0.09920859
0.017209036 0.03396524 0.2028067 -0.1022776 -0.01841681 0.0060197967 0.23945697 -0.3600777
0.11906565 -0.05589171 -0.28706032 -0.17813689 -0.014845322 -0.1030021 0.07080318 -0.0837403
0.20742598 -0.30282632 0.062394105 -0.3339105 0.11928546 0.019968037 -0.16044272 -0.2128519
-0.15983821 -0.20883256 0.30435592 0.2699864 -0.23495246 -0.052977808 0.03233042 0.04220554
-0.007599788 -0.10951356 -0.022440951 -0.11196907 0.3495849 -0.15991889 -0.38593948 -0.086632304
0.2183164 -0.0053672725 0.089683026 -0.4856658 -0.20157513 -0.02381385 0.09394404 0.05352707
-0.15213871 0.23886622 -0.25485808 0.16706164 0.015950933 0.043918278 0.007512045 -0.115726374
0.14198776 -0.06061535 0.115220815 -0.43358576 0.24877632 -0.21607356 -0.14129598 -0.18278484
0.032823984 -0.18145493 -0.092496574 0.15713957 0.030386522 0.06460936 -0.103419386 0.3510679
00000000: e96c debc 0ab5 6dbe 6975 afbe 5996 e4bc
00000010: 46d0 2e3e 55d1 553d 7f39 bebd 5ba1 9dbe
00000020: 6abf fabd 786a 37be 6b0f 4c3d f5d8 803e
00000030: 61c9 893b 9e6a c83c f970 2b3e 7aa5 c7bd
00000040: 1604 b13d 2a61 9cbc 8db2 01bd 5aca 9abe
00000050: c001 4f3e a9a6 773e 6eb6 46be 42cc f2bc
00000060: 7dbc 55bd eacf 573d 3910 c5bc 7eef 92be
00000070: 079a 28be f198 afbe b685 96bd 1c54 f13d
00000080: 5755 2fbd e837 093e 2d60 d43e cd29 a9bc
00000090: 1597 69bd 6696 44bc dc77 2bbc c415 973d
000000a0: 595a c93d 72ee 0abe 24d2 08be 44d2 75be
000000b0: e12c 12bd 6b3c a63d a20a 933c 94c3 99bd
000000c0: f740 a5bb 6acc 033e c47b 42be 8139 ecbd
000000d0: 42f4 b83e 1f62 583e 557e a43e 056a 8b3d
000000e0: 37cb 42be c189 ce3c b17b 38bc c3e6 00be
000000f0: b688 8f3e ecae 583c 39c1 91be 6195 153e
00000100: 9ed9 813e 313b ba3e b050 e0bb a120 ddbe
00000110: b880 0ebe 250e 76bd 2cb0 5cbe 6e59 8fbe
00000120: 2ead 743d 5015 05be 8f93 223e d8f9 1f3c
00000130: c9f9 7ebe 5786 963d 9c02 af3b e4d6 e53e
00000140: 4839 643d 2e84 b13d 1f60 79bc 8388 6c3e
00000150: 2c5c 383d 7236 e4bd 896a 57be 98b8 1abe
00000160: 69c2 b2be 6cef f7bd 4d7c d5bd e58a 0a3c
00000170: 8489 343e 7fb6 54be f390 f33c 577d 133e
00000180: 9205 653d da3c cc3c d851 893b 508b 4e3f
00000190: 1f40 c03a bae6 b43d d5b7 213e ce2f 9ebd
000001a0: f3a9 6a3d fed0 7a3e 77f3 523e af6d c83d
000001b0: 6878 1e3e abda 303e 0888 6c3d d0a0 03bf
000001c0: 9ace 153e 9e33 8cbc 9f68 b5bd 3ffd 5e3d
000001d0: 1bd3 11be 5d0a 613d dfb5 7f3c bb71 9e3e
000001e0: 615e 293d e734 fe3d 6aa5 013e 7adb 8fbe
000001f0: dc82 9abd 935c 6c3c a226 f9ba d835 abbe
00000200: eb7f 74bc 0800 74be 644d bdbd 7d9e 71be
00000210: 3eb6 11be 7408 863e e648 4e3e a389 473e
00000220: 1675 923d 79f9 85bd a844 543c 22e5 9b3d
00000230: 6a90 913e 3285 02bd 83c4 0c3e 025a 923d
00000240: 4464 b73b 4d70 12be f25c 80be 7a63 a4bb
00000250: f2b0 86bd d410 cd3d 2ebf 57be fb57 183e
00000260: fc18 8ebe 40af 033d 9307 b43e 525f 4bbe
00000270: 6ba4 dd3d b741 a43a b5b7 c0bb b7c7 18be
00000280: 93fe 973e 2e61 6cbd b967 5b3d aa94 e0bd
00000290: 7ed5 1f3d 90a5 dd3d 3085 98be 411c edbe
000002a0: 8f23 ba3e 0a50 153e e2ee 7ebe 5d76 16be
000002b0: aa34 55bd 889d 52be 08aa 5dbc 236a 1cbe
000002c0: 21cd 4fbd 5094 37bd ffd9 563c 5ef1 e6bc
000002d0: 655d 213d 6654 b43d e043 23be e02d cb3d
000002e0: f7f9 8c3c 231f 0b3d 8fac 4f3e eb76 d1bd
000002f0: dade 96bc b741 c53b 3534 753e 1b5c b8be
00000300: b1d8 f33d b5ee 64bd 92f9 92be 8469 36be
00000310: cb39 73bc c4f2 d2bd 4201 913d 0980 abbd
00000320: 7a67 543e 0d0c 9bbe f690 7f3d 51f6 aabe
00000330: ef4b f43d 0294 a33c 194b 24be d9f5 59be
00000340: a1ac 23be 34d8 55be 8ad4 9b3e a83b 8a3e
00000350: 6197 70be 42ff 58bd e76c 043d b7df 2c3d
00000360: a407 f9bb a548 e0bd 16d6 b7bc 0a50 e5bd
00000370: cbfc b23e c7c1 23be dc99 c5be 476c b1bd
00000380: 568e 5f3e f2df afbb bcab b73d 30a9 f8be
00000390: b669 4ebe 4315 c3bc bc65 c03d 333f 5b3d
000003a0: 40ca 1bbe 5999 743e c27c 82be 3512 2b3e
000003b0: 88ab 823c a7e3 333d 9a27 f63b f301 edbd
000003c0: 3d65 113e cd47 78bd e4f8 eb3d f4fe ddbe
000003d0: 38bf 7e3e 6342 5dbe e5af 10be f32b 3bbe
000003e0: 7172 063d 52cf 39be d86e bdbd 32e9 203e
000003f0: 28ed f83c ea51 843d 8bcd d3bd 2cbf b33e

bn1.weight f4 [32]
1.0346721 0.9702654 1.042677 1.0059854 0.9978141 0.87915623 0.93535864 1.0647538
0.85924995 0.90569705 1.0633585 1.0478456 1.0240813 0.9477587 1.0861154 1.052685
0.9366587 0.9610336 0.90963703 0.95466745 0.90841025 1.042114 1.1489484 0.98209417
0.9923871 1.0903703 1.1040039 0.993369 1.090202 0.9492092 0.87193036 0.9575142
00000000: 2370 843f 5063 783f 7176 853f 21c4 803f
00000010: bf70 7f3f 6210 613f aa73 6f3f da49 883f
00000020: cef7 5b3f c3db 673f 221c 883f ce1f 863f
00000030: 1915 833f 50a0 723f d405 8b3f 62be 863f
00000040: ddc8 6f3f 4c06 763f f9dd 683f 1665 743f
00000050: 938d 683f fe63 853f be10 933f 866a 7b3f
00000060: 150d 7e3f 4191 8b3f 0050 8d3f 6e4d 7e3f
00000070: bd8b 8b3f 60ff 723f d436 5f3f a71f 753f

bn1.bias f4 [32]
-0.35721332 -0.032941293 -0.111523524 -0.13452384 0.061080575 -0.0041312017 -0.09459935 0.069398716
0.030551972 0.21353081 -0.09062516 -0.07243259 -0.33916363 -0.13712801 0.0951243 0.11276851
0.024040496 0.0839681 0.0339112 -0.06359954 -0.2379986 0.17295995 -0.0010592936 0.1524369
0.16307274 0.23217954 -0.19530128 -0.2689621 0.101095624 -0.1577844 0.14454955 0.22324447
00000000: aae4 b6be 73ed 06bd 7266 e4bd 9ec0 09be
00000010: a02f 7a3d 085f 87bb 4ebd c1bd ea20 8e3d
00000020: 2148 fa3c d2a7 5a3e af99 b9bd 8a57 94bd
00000030: dba6 adbe 496b 0cbe 87d0 c23d 2df3 e63d
00000040: 93f0 c43c 78f7 ab3d 78e6 0a3d 7a40 82bd
00000050: e8b5 73be 6a1c 313e ffd7 8aba 6b18 1c3e
00000060: 8afc 263e 79c0 6d3e 0ffd 47be 66b5 89be
00000070: 390b cf3d 3c92 21be cc04 143e 339a 643e

conv2.fc.weight f4 [32, 32, 1]
-0.11970708 -0.04348481 -0.11579049 0.011141035 0.30530858 0.018431583 -0.11588034 -0.28058964
-0.08083651 0.1119461 0.17600319 0.13622902 0.2629735 -0.08176689 -0.07941052 0.13862564
-0.12843944 -0.023941053 -0.094723865 0.124323525 0.066610955 -0.097432435 0.20235112 -0.0599345
-0.18200608 0.010304397 0.19278288 0.1059596 0.005477353 0.10143278 -0.16077252 -0.22647889
0.34255755 0.09915451 0.046302836 -0.03192768 0.038308937 0.01826864 -0.07135348 0.37546986
-0.0393705 0.029761655 0.12914431 0.033558853 -0.02681943 -0.098435245 0.084969975 0.022570523
0.075620696 0.032202065 0.051768463 -0.039039787 -0.031588003 -0.040917117 0.06717721 0.12973604
-0.292421 -0.13065587 0.07994722 -0.15826152 -0.12064847 0.028305456 0.13505721 -0.100329705
0.09173759 -0.038050003 0.14804448 0.0906974 -0.026895344 -0.014125929 0.029475119 0.05859638
-0.021587426 -0.19066913 -0.13872437 -0.14110097 -0.07686424 -0.14153455 0.066901565 -0.08019002
0.05541783 0.40958044 -0.24164285 -0.08368564 -0.16013695 -0.16713281 -0.23483251 -0.14626622
0.1794542 -0.044142995 -0.29066876 -0.11583934 -0.046447493 -0.022276523 -0.11514895 -0.08956859
-0.27060294 0.088968694 -0.33951727 -0.13009825 0.10748789 -0.069012344 0.15496385 -0.12514704
-0.20417303 0.032147456 -0.18402265 0.026764276 0.15424271 -0.11235931 -0.008535104 0.21998994
0.28053212 -0.057051536 -0.047041714 -0.09289818 -0.2265504 -0.2501831 -0.089116685 -0.18076792
0.07540833 0.07574508 -0.12429482 -0.021668678 0.120097615 0.0056552975 -0.10495605 0.10634772
0.030224232 0.039104067 0.20231491 0.042931642 0.07374928 -0.032680675 0.018294403 -0.12907536
-0.022948425 -0.30040142 -0.16520305 0.124163695 0.04919173 0.06602637 0.025924163 0.10519008
0.024780484 -0.14228109 -0.06862542 -0.1479024 0.16505773 -0.11477231 0.24385437 -0.14492816
0.18049833 0.18225324 0.20570594 0.0036488345 0.20337771 0.25447825 0.053202406 -0.24797922
0.16813193 0.11294664 -0.067816846 -0.06434614 0.14938748 0.012681356 -0.03386892 -0.13952795
0.08547563 -0.12451523 -0.0076714926 -0.066256806 0.05849777 -0.18800789 0.07772357 0.04939507
-7.2696006e-05 -0.028919583 -0.29780054 0.09729276 0.007012002 -0.17667383 -0.081768595 -0.05189279
-0.034341224 0.29137567 0.16151132 0.11983841 -0.21373425 -0.042139713 0.19914919 0.092428595
0.12885633 0.19926986 0.13483521 0.07312063 0.07756467 0.05554955 -0.014043309 -0.037385333
-0.305645 0.012769032 -0.03653535 -0.20729735 -0.06311892 -0.22580397 -0.2571616 0.029499969
0.27541244 -0.07888128 -0.06796819 -0.1431827 -0.05812753 -0.19252053 -0.15319449 -0.15168637
-0.016682772 0.15226692 -0.23889329 -0.033067893 0.09908363 0.055801563 -0.028719606 0.04667861
-0.22031257 -0.19054724 -0.08184594 0.01611647 0.170918 -0.07859228 -0.10370761 0.1170862
-0.1516201 -0.0031441269 -0.06369457 -0.004442134 0.25405017 -0.07557168 0.0678686 0.059939343
0.15246503 0.023935173 0.20958324 0.07502131 0.09110802 0.32171407 0.04485529 0.21631584
-0.014920308 -0.22186045 0.2501533 -0.2118855 0.050164796 -0.1669629 -0.07115031 -0.08877473
00000000: fc28 f5bd 211d 32bd 9023 edbd e388 363c
00000010: 6851 9c3e d5fd 963c ac52 edbd 72a9 8fbe
00000020: 9d8d a5bd ff43 e53d 2e3a 343e 9f7f 0b3e
00000030: 76a4 863e 6675 a7bd fca1 a2bd e1f3 0d3e
00000040: a185 03be 0720 c4bc 96fe c1bd 559d fe3d
00000050: 536b 883d a88a c7bd 2235 4f3e e17d 75bd
00000060: cd5f 3abe c6d3 283c e068 453e 5901 d93d
00000070: 5e7b b33b fdbb cf3d 8da1 24be 15ea 67be
00000080: b463 af3e 8511 cb3d 0ba8 3d3d 99c6 02bd
00000090: d5e9 1c3d 1da8 953c c621 92bd 963d c03e
000000a0: f642 21bd b7ce f33c 683e 043e 0275 093d
000000b0: 6cb4 dbbc 6b98 c9bd bd04 ae3d d1e5 b83c
000000c0: 06df 9a3d 50e6 033d 2b0b 543d 2fe8 1fbd
000000d0: 6c62 01bd b598 27bd 3494 893d 86d9 043e
000000e0: 35b8 95be a7ca 05be 5ebb a33d 4f0f 22be
000000f0: 8c16 f7bd d8e0 e73c 704c 0a3e a979 cdbd
00000100: ebe0 bb3d 52da 1bbd f998 173e 8fbf b93d
00000110: a053 dcbc 7170 67bc ce75 f13c c202 703d
00000120: 1dd8 b0bc c53e 43be c30d 0ebe c67c 10be
00000130: 006b 9dbd 6fee 10be b003 893d aa3a a4bd
00000140: cefd 623d 87b4 d13e 3971 77be 6063 abbd
00000150: f1fa 23be dd24 2bbe ef77 70be d0c6 15be
00000160: d8c2 373e 49cf 34bd 89d2 94be 2d3d edbd
00000170: ba3f 3ebd 417d b6bc 36d3 ebbd bd6f b7bd
00000180: 788c 8abe 3835 b63d 35d5 adbe 7a38 05be
00000190: 9c22 dc3d 5856 8dbd d8ae 1e3e 8c26 00be
000001a0: bc12 51be 0dad 033d 6f70 3cbe c140 db3c
000001b0: cdf1 1d3e a31c e6bd d2d6 0bbc 0b45 613e
000001c0: e8a1 8f3e dfae 69bd d0ae 40bd 6741 bebd
000001d0: d4fc 67be 0018 80be cf82 b6bd 3a1b 39be
000001e0: af6f 9a3d 3d20 9b3d 488e febd 8382 b1bc
000001f0: bdf5 f53d 1350 b93b 33f3 d6bd d5cc d93d
00000200: cf98 f73c 962b 203d a42b 4f3e 17d9 2f3d
00000210: dd09 973d 2cdc 05bd 25de 953c 552c 04be
00000220: 56fe bbbc 37ce 99be fd2a 29be 8949 fe3d
00000230: 447d 493d d538 873d e95e d43c e66d d73d
00000240: 7100 cb3c 22b2 11be 7c8b 8cbd ba73 17be
00000250: e504 293e bf0d ebbd f6b4 793e 0c68 14be
00000260: 8ed4 383e 98a0 3a3e 94a4 523e 4921 6f3b
00000270: 3f42 503e f94a 823e c4ea 593d 44ee 7dbe
00000280: c72a 2c3e 9150 e73d 8fe3 8abd e9c7 83bd
00000290: 08f9 183e 76c5 4f3c 23ba 0abd 6ae0 0ebe
000002a0: d90d af3d d701 ffbd 2561 fbbb a6b1 87bd
000002b0: 5c9b 6f3d 2485 40be 892d 9f3d 7c52 4a3d
000002c0: 5f74 98b8 c3e8 ecbc 5079 98be 6d41 c73d
000002d0: f0c4 e53b fce9 34be 4b76 a7bd 898d 54bd
000002e0: 62a9 0cbd 312f 953e 3963 253e d76d f53d
000002f0: 27dd 5abe b19a 2cbd c4ed 4b3e 344b bd3d
00000300: eaf2 033e 660d 4c3e 3e12 0a3e 45c0 953d
00000310: 3ada 9e3d ed87 633d e815 66bc 5d21 19bd
00000320: 807d 9cbe 3435 513c 17a6 15bd c245 54be
00000330: 7e44 81bd 2839 67be afaa 83be eba9 f13c
00000340: dc02 8d3e 828c a1bd e832 8bbd 7c9e 12be
00000350: 2217 6ebd 1a24 45be 04df 1cbe ac53 1bbe
00000360: 4faa 88bc dceb 1b3e 71a0 74be 3372 07bd
00000370: 5cec ca3d 2e90 643d 6145 ebbc 1232 3f3d
00000380: 9e99 61be d11e 43be d89e a7bd b006 843c
00000390: 2105 2f3e fdf4 a0bd a864 d4bd e4ca ef3d
000003a0: 4d42 1bbe b20d 4ebb 4c72 82bd 528f 91bb
000003b0: dd12 823e 53c5 9abd b1fe 8a3d f582 753d
000003c0: cb1f 1c3e b213 c43c fd9c 563e c6a4 993d
000003d0: d796 ba3d b5b7 a43e 2eba 373d e681 5d3e
000003e0: 4f74 74bc 632f 63be 1814 803e 83f8 58be
000003f0: 9a79 4d3d 53f8 2abe 41b7 91bd 87cf b5bd

bn2.weight f4 [32]
1.0023654 0.93186873 1.0810895 1.116192 1.0141147 0.96229124 1.0933632 1.099076
1.0855827 0.8760914 0.9940399 1.0218775 0.8856113 1.0803187 0.92251545 0.84909695
0.8744546 0.9854806 1.0297168 0.99861956 1.0662733 0.8655967 1.1324002 0.85805565
1.1395714 1.1189799 0.9347743 1.036325 0.9051739 0.9767016 1.024479 1.0399661
00000000: 824d 803f f38e 6e3f 2461 8a3f 61df 8e3f
00000010: 83ce 813f b858 763f 53f3 8b3f 86ae 8c3f
00000020: 60f4 8a3f 8747 603f 6679 7e3f e2cc 823f
00000030: 6cb7 623f e247 8a3f f929 6c3f 6b5e 593f
00000040: 42dc 5f3f 7548 7c3f c3cd 833f 88a5 7f3f
00000050: a57b 883f bf97 5d3f 7df2 903f 89a9 5b3f
00000060: 7add 913f bc3a 8f3f 5e4d 6f3f 4ca6 843f
00000070: 7ab9 673f 1e09 7a3f 2122 833f 9c1d 853f

bn2.bias f4 [32]
-0.0757721 -0.25792834 0.087935224 0.13430764 -0.23288946 0.012963817 0.055011444 0.019964024
0.023636047 0.16495825 0.16649933 -0.037469197 -0.24660845 -0.037633102 -0.19816944 -0.060615912
0.042259127 0.17055069 0.13964123 -0.019073758 0.02768147 -0.2008505 0.013177614 -0.24403058
-0.021468524 0.06969215 -0.08683449 0.16236386 -0.04468562 -0.06246876 0.030125277 0.053812236
00000000: 672e 9bbd 2f0f 84be 6217 b43d f187 093e
00000010: 937a 6ebe 3166 543c ae53 613d 988b a33c
00000020: 62a0 c13c d1ea 283e cd7e 2a3e 4d79 19bd
00000030: ed86 7cbe 2b25 1abd eeec 4abe 6448 78bd
00000040: e817 2d3d d7a4 2e3e 1cfe 0e3e 9240 9cbc
00000050: 40c4 e23c c1ab 4dbe ebe6 573c 27e3 79be
00000060: c2de afbc c2ba 8e3d 48d6 b1bd b642 263e
00000070: 4508 37bd 3edf 7fbd 49c9 f63c 386a 5c3d

conv3.fc.weight f4 [48, 32, 1]
0.06399717 0.050550684 -0.12368277 -0.07547316 0.01844299 -0.036225382 -0.18176404 0.21882871
0.03183991 0.10740644 -0.022805998 -0.080891944 -0.1747364 0.17698061 0.092081375 -0.055256344
0.17313528 -0.17668436 -0.11587958 -0.005672162 -0.35396785 -0.23136206 0.08590866 -0.19548903
-0.24129349 0.105100825 -0.036235683 -0.102991864 -0.25834966 -0.1452166 -0.14484358 0.10722265
-0.0894405 -0.058996506 -0.12039812 -0.1965113 -0.028798355 -0.13719271 0.0059109214 -0.050218288
0.0007103917 0.070572816 0.20755455 0.1419168 0.12000342 -0.13478535 -0.07562504 0.20871195
0.18364245 -0.1489006 -0.15895803 -0.06712846 -0.0021022474 0.13230602 0.13454063 -0.15724602
-0.27597806 -0.0017917134 0.13789931 -0.1465805 0.046151463 -0.032420997 0.1893202 0.23182547
0.05503267 -0.1315021 0.11289013 -0.027211819 -0.06258194 0.17785226 -0.057308614 -0.31414217
-0.016825212 -0.042734105 -0.20950435 -0.14954627 -0.10796113 -0.15034917 -0.24847049 0.12995157
-0.05786227 0.11053041 -0.35394058 0.018200152 -0.16556732 0.036092274 0.0964687 0.16687341
0.21522331 0.15952422 -0.017165007 0.12104536 -0.2542298 0.13080879 -0.0061634975 -0.015781349
0.19736587 -0.017660707 -0.19317767 -0.23020425 0.08744659 -0.094599485 -0.2822113 0.06031774
0.2449994 -0.096232355 -0.030234622 0.11434836 -0.15706001 0.123878226 0.07803518 0.09921855
0.031474046 0.001484369 0.13327716 -0.12898529 0.09626697 -0.004035429 -0.06722809 -0.07239375
0.21918078 -0.13787909 -0.012332342 -0.043205854 -0.003925849 0.013587444 0.1784822 0.16415562
0.065932386 -0.20209934 0.21491726 0.25198698 -0.026696451 -0.09920911 -0.29123715 0.035356265
0.06279021 -0.10160974 0.14826454 0.04800894 -0.09525111 0.026672397 -0.095818415 0.09403907
0.20708969 0.012709766 0.065841496 0.17044243 -0.10520811 -0.21097931 -0.14988533 -0.12716386
-0.13539037 0.09522724 -0.13380119 -0.1013592 -0.10627255 -0.14708194 0.29765052 -0.06703098
-0.04918485 0.0648231 0.024667127 0.037684556 -0.21918967 0.034785185 0.04255242 -0.13744918
0.13788332 0.080915645 -0.274544 0.063249566 -0.12715144 -0.23804942 -0.042259216 -0.20666924
-0.24198629 0.0497664 -0.08893978 -0.035372917 -0.03845108 -0.281425 0.071218364 -0.1128361
0.1685545 0.10589807 -0.25330663 0.11025304 -0.115955785 0.07001772 -0.031231552 0.10843404
0.13171093 0.014011718 -0.17809534 0.09369164 0.06020459 -0.0076784664 -0.29149678 0.04599791
0.17903595 -0.0843286 0.27791134 0.19086236 -0.013882604 -0.12725975 -0.1310383 0.08823681
0.08515582 0.036331348 0.2165316 -0.07333382 -0.09873381 0.06985155 -0.08344584 0.072176844
0.044732116 0.14446154 0.004347797 0.008252657 -0.18088949 0.10509193 0.3233676 0.05159575
-0.045391455 -0.102137536 0.19122906 0.15327215 -0.033192877 -0.092770174 -0.1090939 0.035950094
0.11497502 -0.17000817 -0.20813937 0.070494615 0.054484703 -0.070870176 -0.042579018 0.088059954
-0.1826589 0.08008889 -0.1614201 0.17478433 -0.25521562 0.10002583 -0.17905682 0.09107776
0.15066081 -0.07195536 -0.09481212 0.24434151 0.02533357 0.015276394 -0.039189298 -0.036010604
00000000: f310 833d 3c0e 4f3d 644d fdbd ac91 9abd
00000010: c115 973c 1161 14bd 5a20 3abe a214 603e
00000020: 916a 023d e8f7 db3d a5d3 babc adaa a5bd
00000030: 19ee 32be 683a 353e 2995 bc3d 7a54 62bd
00000040: 604a 313e bfec 34be 4652 edbd 8bdd b9bb
00000050: 463b b5be 2dea 6cbe e1f0 af3d 472e 48be
00000060: a415 77be 1a3f d73d de6b 14bd 66ed d2bd
00000070: 6846 84be a9b3 14be e051 14be 8c97 db3d
00000080: 952c b7bd 52a6 71bd 4a93 f6bd 423a 49be
00000090: 87ea ebbc 3f7c 0cbe 67b0 c13b b1b1 4dbd
000000a0: 9439 3a3a 7b88 903d 2e89 543e a352 113e
000000b0: 5ac4 f53d 2c05 0abe 4de1 9abd 96b8 553e
000000c0: c40c 3c3e 6679 18be e5c5 22be a57a 89bd
000000d0: dcc5 09bb 3b7b 073e 05c5 093e 1a05 21be
000000e0: ff4c 8dbe edd7 eaba 7a35 0d3e 3319 16be
000000f0: 5109 3d3d e1cb 04bd 28dd 413e a863 6d3e
00000100: f069 613d 7da8 06be f132 e73d 52eb debc
00000110: f62a 80bd e71e 363e 70bc 6abd 3ed7 a0be
00000120: 07d5 89bc f509 2fbd 4f88 56be a822 19be
00000130: ba1a ddbd 22f5 19be 0c6f 7ebe 0612 053e
00000140: fd00 6dbd c55d e23d b337 b5be 7c18 953c
00000150: 7b8a 29be 7ed5 133d 6291 c53d dde0 2a3e
00000160: 8063 5c3e 515a 233e a19d 8cbc a1e6 f73d
00000170: 692a 82be bdf2 053e 2af7 c9bb e347 81bc
00000180: 471a 4a3e 30ad 90bc 5ed0 45be aaba 6bbe
00000190: 3317 b33d 60bd c1bd 007e 90be bc0f 773d
000001a0: 1fe1 7a3e 7815 c5bd 99ae f7bc 792f ea3d
000001b0: 57d4 20be deb3 fd3d e9d0 9f3d 1833 cb3d
000001c0: eeea 003d 298f c23a cf79 083e b814 04be
000001d0: 9e27 c53d a23b 84bb e1ae 89bd 2d43 94bd
000001e0: ed70 603e 2d30 0dbe 970d 4abc 9ff8 30bd
000001f0: 69a4 80bb df9d 5e3c 0ac4 363e 6918 283e
00000200: 8f07 873d 21f3 4ebe 4513 5c3e 7004 813e
00000210: 84b2 dabc 252e cbbd 091d 95be bbd1 103d
00000220: 2798 803d c418 d0bd a9d2 173e 06a5 443d
00000230: 0413 c3bd 1280 da3c 723c c4bd 8e97 c03d
00000240: 520f 543e 9f3c 503c e8d7 863d 7688 2e3e
00000250: 5977 d7bd f60a 58be 8a7b 19be 3e37 02be
00000260: c6a3 0abe 8006 c33d 2e03 09be 6a95 cfbd
00000270: 6ca5 d9bd a69c 16be a665 983e 8a47 89bd
00000280: 0e76 49bd f9c1 843d b712 ca3c 1f5b 1a3d
00000290: 4273 60be e97a 0e3d 724b 2e3d 7abf 0cbe
000002a0: 4931 0d3e 1ab7 a53d 0891 8cbe fd88 813d
000002b0: fd33 02be 3ac3 73be 0018 2dbd 1aa1 53be
000002c0: 41cb 77be dad7 4b3d 0f26 b6bd 31e3 10bd
000002d0: e17e 1dbd f016 90be efda 913d 9d16 e7bd
000002e0: 8d99 2c3e 16e1 d83d 68b1 81be 59cc e13d
000002f0: 3a7a edbd 7365 8f3d 50d9 ffbc aa12 de3d
00000300: 3bdf 063e 6891 653c a05e 36be 67e1 bf3d
00000310: 1799 763d a59b fbbb 113f 95be 4e68 3c3d
00000320: 3355 373e 79b4 acbd 654a 8e3e 6c71 433e
00000330: dd73 63bc 6150 02be e72e 06be 80b5 b43d
00000340: 2d66 ae3d 2ed0 143d 76ba 5d3e 0b30 96bd
00000350: f434 cabd 540e 8f3d a7e5 aabd 74d1 933d
00000360: 0639 373d baed 133e f777 8e3b 2736 073c
00000370: 183b 39be 703a d73d 7090 a53e 1156 533d
00000380: 64ec 39bd 7c2d d1bd 8dd1 433e 60f3 1c3e
00000390: 41f5 07bd 4afe bdbd 9f6c dfbd 6840 133d
000003a0: 0678 eb3d 9f16 2ebe 7d22 55be 7b5f 903d
000003b0: 5a2b 5f3d 6224 91bd 5667 2ebd c758 b43d
000003c0: ef0a 3bbe a505 a43d 504b 25be aafa 323e
000003d0: 9fab 82be 58da cc3d ac5a 37be fa86 ba3d
000003e0: d446 1a3e 555d 93bd db2c c2bd a934 7a3e
000003f0: 5988 cf3c d749 7a3c f584 20bd db7f 13bd

bn3.weight f4 [48]
0.8765828 0.9397002 0.751357 0.9243864 0.74700826 0.9474548 0.78432083 0.93277717
0.8455507 0.84706074 0.9559402 0.92520446 0.8992531 0.98604846 0.7851257 0.8650119
0.99034184 0.900643 0.9247956 0.98125786 0.92549664 0.8790994 0.8838598 0.7893184
0.90457183 0.9367816 0.87132734 0.94476295 1.0191338 1.0011846 0.9576773 1.0457377
0.89501864 0.83788806 1.0012522 0.9326488 0.8671933 0.8219089 0.80758804 0.89004236
0.8216581 0.87930095 0.97011733 0.87895066 0.90116864 0.9499209 0.8062821 0.9146639
00000000: bb67 603f 3190 703f ef58 403f 96a4 6c3f
00000010: ef3b 3f3f 668c 723f 40c9 483f 7cca 6e3f
00000020: 0376 583f f9d8 583f 7fb8 743f 33da 6c3f
00000030: 7335 663f ac6d 7c3f fffd 483f 6b71 5d3f
00000040: 0b87 7d3f 8a90 663f 68bf 6c3f b733 7b3f
00000050: 59ed 6c3f a90c 613f a344 623f c510 4a3f
00000060: 0592 673f ebd0 6f3f 4f0f 5f3f fcdb 713f
00000070: fa72 823f d126 803f 572a 753f bcda 853f
00000080: f11f 653f d57f 563f 0829 803f 12c2 6e3f
00000090: 6100 5e3f 9f68 523f 17be 4e3f d1d9 633f
000000a0: 2f58 523f de19 613f 9c59 783f e902 613f
000000b0: fdb2 663f 042e 733f 8168 4e3f 6a27 6a3f

bn3.bias f4 [48]
-0.16843739 0.011942493 -0.056223173 -0.041694254 -0.13624531 -0.13278668 0.049168527 -0.076451674
-0.13888474 -0.04244953 -0.0097059775 0.07475045 -0.18566734 0.020258697 -0.118297935 -0.1588365
-0.08879534 -0.07407903 -0.02944682 0.08558251 -0.17850839 -0.18372005 -0.083751544 -0.20216274
-0.10311382 0.052351877 -0.18820192 0.024898285 -0.10717765 -0.106795706 -0.003689823 -0.15890627
-0.11438523 0.039671917 -0.14504254 -0.07350335 -0.07632727 -0.1651108 -0.11388814 -0.22323352
-0.27288312 -0.009928779 -0.012319282 0.13353321 -0.11153945 0.07676219 -0.08205822 -0.12579595
00000000: da7a 2cbe 72aa 433c 454a 66bd 98c7 2abd
00000010: e483 0bbe 3bf9 07be f064 493d b292 9cbd
00000020: cd37 0ebe 8fdf 2dbd d205 1fbc c416 993d
00000030: 941f 3ebe 91f5 a53c 3046 f2bd 09a6 22be
00000040: 55da b5bd bfb6 97bd 753a f1bc e245 af3d
00000050: e7ca 36be 1c21 3cbe ee85 abbd c003 4fbe
00000060: 572d d3bd ec6e 563d 01b8 40be 7df7 cb3c
00000070: f57f dbbd b5b7 dabd f5d0 71bb 53b8 22be
00000080: ce42 eabd 057f 223d 0886 14be ed88 96bd
00000090: 7951 9cbd ce12 29be 2f3e e9bd 5497 64be
000000a0: 56b7 8bbe 51ac 22bc d0d6 49bc eebc 083e
000000b0: cc6e e4bd 7f35 9d3d 240e a8bd a7d0 00be

conv4.fc.weight f4 [64, 48, 1]
0.12453311 0.14796117 0.119573385 0.042843238 -0.22849154 -0.11633395 -0.021065567 0.026479322
-0.066581674 0.07955504 0.06369529 -0.06597095 -0.057478663 0.19990599 -0.13501495 0.104592875
-0.071671456 -0.084709644 -0.06821183 -0.2236305 -0.044216745 -0.0732898 -0.012427447 -0.17785352
0.04932294 -0.12546894 0.1076934 -0.31896216 0.02254833 -0.19977598 0.031135391 -0.046326533
-0.024510166 0.015862213 -0.1433277 0.027008079 0.080154695 -0.20895353 -0.21002467 -0.26785493
-0.19570565 0.0567185 0.035913214 0.1737226 0.09965346 -0.008486331 -0.06763496 0.34686735
-0.08227516 -0.34512356 -0.2101048 -0.19068414 -0.010549958 -0.13968953 -0.04911467 -0.17313302
-0.08544574 -0.1374624 -0.05483565 -0.03571117 -0.30303267 -0.0872294 -0.09806567 -0.038117796
-0.1247625 -0.21187246 -0.032655656 -0.23785917 -0.20831385 0.05731542 -0.115428016 -0.07446945
-0.10908221 -0.15224196 -0.061233547 0.14830181 -0.026102446 -0.10541272 -0.11530631 -0.057597823
-0.099568896 0.07237284 -0.1089703 -0.09877255 -0.026291482 -0.022529941 -0.023949048 0.11774127
-0.22195195 -0.12459282 -0.08250127 -0.07734927 -0.088046566 -0.23826495 -0.1908752 -0.1117913
0.22153266 -0.012731527 0.22768109 0.020641223 -0.0933919 -0.06149297 0.17547023 -0.0111482525
0.043757603 0.08634864 0.08918506 0.1202963 -0.13725525 -0.06502357 -0.071044326 0.05216365
-0.035475776 0.044195976 0.07349565 -0.051532265 0.097159244 0.0027802952 0.07508098 0.0029191975
-0.039009694 0.0019491204 -0.06989445 0.28860983 -0.00034484905 0.162063 0.25902715 -0.011991694
0.2142973 0.051893707 -0.029760009 0.14702156 -0.18345505 -0.15844847 0.1754885 -0.03401977
0.15191811 0.016797263 0.06497759 0.15737198 0.056109518 -0.012221288 0.100942716 0.35746312
-0.11185501 -0.01947484 -0.123571195 -0.29061812 -0.14447853 -0.15857577 -0.010813248 -0.16881506
-0.059706446 -0.20002803 0.037198626 -0.029316686 -0.11877402 -0.008995876 0.011704337 0.049101092
0.16943944 0.05056841 0.22238564 0.16375262 -0.06944782 -0.22351605 0.12729524 -0.262829
-0.17296392 0.15189518 0.15371963 0.22115552 -0.059257753 -0.03302294 0.1138415 -0.08382673
-0.111608826 0.04941235 0.1984314 0.2548765 0.022688612 0.1007659 -0.15337136 0.099451
-0.16950399 -0.007749598 -0.044181302 -0.24985823 0.0019259971 0.0042925295 0.046850055 -0.05930605
-0.109899335 0.17063524 -0.017517157 0.011655912 -0.33606026 0.14281377 0.12459974 0.013204504
-0.081925735 -0.20994696 0.1351994 0.012363881 -0.042871334 -0.0025826306 -0.059815414 -0.19908413
-0.1102937 -0.2573099 -0.0029874796 0.11211508 0.07768437 0.12376869 -0.043250788 -0.05949476
-0.1268027 -0.105498314 -0.19466051 -0.089143805 -0.12189408 -0.048864897 -0.15994419 0.25176537
-0.1390579 0.05488664 0.11231238 0.15507361 -0.18650275 -0.09631107 -0.10697753 0.004427497
-0.09154168 0.17259933 -0.026091687 -0.20759404 -0.022714637 -0.114825696 -0.017754784 -0.11155794
-0.20367447 0.057325955 -0.027796255 0.12179185 0.04049093 -0.19991499 -0.15848108 0.07799449
0.15699214 -0.06750399 0.13947012 0.16024633 -0.16929178 0.06071537 0.03448787 -0.017486187
00000000: 370b ff3d 2283 173e e4e2 f43d 647c 2f3d
00000010: b0f9 69be 7e40 eebd b291 acbc 2aeb d83c
00000020: f95b 88bd c1ed a23d ad72 823d c71b 87bd
00000030: bf6e 6bbd 28b4 4c3e 5c41 0abe ca34 d63d
00000040: 7cc8 92bd 407c adbd a5b2 8bbd 65ff 64be
00000050: 9e1c 35bd f618 96bd 7e9c 4bbc 3c1f 36be
00000060: da06 4a3d ee7a 00be 5b8e dc3d 024f a3be
00000070: 46b7 b83c 1392 4cbe a60f ff3c e4c0 3dbd
00000080: 8bc9 c8bc 79f1 813c 7fc4 12be 0c40 dd3c
00000090: 2528 a43d eaf7 55be b510 57be 4824 89be
000000a0: 1067 48be a851 683d bc19 133d 56e4 313e
000000b0: 1d17 cc3d 410a 0bbc 3384 8abd 9998 b13e
000000c0: e17f a8bd 09b4 b0be b625 57be b442 43be
000000d0: bbd9 2cbc c60a 0fbe 772c 49bd c849 31be
000000e0: 2dfe aebd f2c2 0cbe 599b 60bd e045 12bd
000000f0: 1927 9bbe 54a5 b2bd a7d6 c8bd 6821 1cbd
00000100: 7b83 ffbd 18f5 58be f0c1 05bd 5b91 73be
00000110: 3a50 55be 93c3 6a3d 8665 ecbd 7083 98bd
00000120: 7e66 dfbd 51e5 1bbe 07d0 7abd 6edc 173e
00000130: ccd4 d5bc a0e2 d7bd b725 ecbd b2eb 6bbd
00000140: c7ea cbbd 3638 943d d22b dfbd 4349 cabd
00000150: 3c61 d7bc b690 b8bc cb30 c4bc 5622 f13d
00000160: 5f47 63be 852a ffbd 6df6 a8bd 4b69 9ebd
00000170: c251 b4bd bafb 73be ca74 43be d6f2 e4bd
00000180: 75d9 623e e597 50bc 3b25 693e c817 a93c
00000190: 4144 bfbd 0de0 7bbd 78ae 333e 29a7 36bc
000001a0: 2c3b 333d 8ed7 b03d a8a6 b63d e85d f63d
000001b0: a48c 0cbe 142b 85bd b07f 91bd 8da9 553d
000001c0: 0c4f 11bd d706 353d e384 963d 7f13 53bd
000001d0: 6dfb c63d 9d35 363b 0fc4 993d 0250 3f3b
000001e0: a1c8 1fbd a179 ff3a d224 8fbd abc4 933e
000001f0: dbcc b4b9 d8f3 253e 359f 843e cf78 44bc
00000200: c070 5b3e 7f8e 543d 43cb f3bc d28c 163e
00000210: a4db 3bbe 5140 22be 42b3 333e 5058 0bbd
00000220: 6c90 1b3e 6a9a 893c f912 853d 1f26 213e
00000230: 18d3 653d cc3b 48bc 0ebb ce3d 6805 b73e
00000240: 3d14 e5bd b389 9fbc e512 fdbd e6cb 94be
00000250: 2ef2 13be b061 22be 0d2a 31bc dbdd 2cbe
00000260: bf8e 74bd 26d4 4cbe 965d 183d 8c29 f0bc
00000270: cb3f f3bd 7063 13bc 8cc3 3f3c 3a1e 493d
00000280: 8881 2d3e d220 4f3d 10b9 633e c4ae 273e
00000290: a93a 8ebd 64e1 64be af59 023e 8691 86be
000002a0: 741d 31be 698a 1b3e ae68 1d3e 9876 623e
000002b0: 42b8 72bd 1043 07bd bb25 e93d 59ad abbd
000002c0: 2b93 e4bd 9b64 4a3d 9a31 4b3e 2c7f 823e
000002d0: 78dd b93c 5a5e ce3d 620d 1dbe f7ac cb3d
000002e0: 7492 2dbe 57f0 fdbb 74f7 34bd d6da 7fbe
000002f0: bd71 fc3a 59a8 8c3b d8e5 3f3d e7ea 72bd
00000300: e712 e1bd 01bb 2e3e 2480 8fbc 70f8 3e3c
00000310: 1710 acbe c63d 123e 262e ff3d b457 583c
00000320: aec8 a7bd 56fc 56be b671 0a3e e091 4a3c
00000330: da99 2fbd 5a41 29bb 0201 75bd b6dc 4bbe
00000340: aae1 e1bd 20be 83be 97c9 43bb 979c e53d
00000350: fc18 9f3d 707a fd3d bd27 31bd c7b0 73bd
00000360: 91d8 01be 800f d8bd 1655 47be 0791 b6bd
00000370: 9aa3 f9bd 8f26 48bd 69c8 23be 64e7 803e
00000380: 3265 0ebe d0d0 603d 0804 e63d 9ecb 1e3e
00000390: 94fa 3ebe bd3e c5bd 0917 dbbd 8914 913b
000003a0: 347a bbbd e1bd 303e 3cbe d5bc 8893 54be
000003b0: 0c14 babc bc29 ebbd 7b72 91bc 7d78 e4bd
000003c0: 0a90 50be 9fce 6a3d f9b4 e3bc 016e f93d
000003d0: d1d9 253d 84b6 4cbe dd48 22be 93bb 9f3d
000003e0: 8cc2 203e 883f 8abd 41d1 0e3e 9d17 243e
000003f0: d35a 2dbe aeb0 783d 2743 0d3d 313f 8fbc

bn4.weight f4 [64]
0.943901 1.0187911 0.99448115 0.96821773 0.8735519 1.014768 0.94372714 1.0027822
0.8367108 0.9933419 0.8861256 1.0333015 0.9209277 0.8693801 0.9497753 1.001953
1.0992463 0.8641226 0.7492221 0.82261497 0.8741941 0.9599329 0.88443524 1.0295008
0.849512 0.9270567 1.0121044 0.9857602 0.82920986 0.9468069 0.93367136 0.8816273
0.8156191 0.91965044 0.97569835 0.9531092 0.85351765 1.1004385 0.8863004 1.0104092
0.9665775 1.109468 0.9532039 0.85002273 0.84734786 0.98655945 1.1682715 0.906882
0.86804205 0.9413551 0.95747197 0.9129496 1.0139513 1.0064242 0.8836239 0.90964955
1.0968391 0.9314121 0.88390285 0.81419265 1.0046104 0.84113693 0.95970863 1.1173263
00000000: 7fa3 713f bf67 823f 5196 7e3f 1edd 773f
00000010: 19a1 5f3f ebe3 813f 1a98 713f 2b5b 803f
00000020: ae32 563f a84b 7e3f 21d9 623f 3943 843f
00000030: ebc1 6b3f b28f 5e3f 7924 733f ff3f 803f
00000040: 1ab4 8c3f 2437 5d3f 05cd 3f3f e596 523f
00000050: 2fcb 5f3f 2abe 753f 596a 623f afc6 833f
00000060: 9e79 593f 9753 6d3f a38c 813f c85a 7c3f
00000070: 1947 543f f061 723f 1605 6f3f 54b2 613f
00000080: 6acc 503f 366e 6b3f 5ec7 793f f7fe 733f
00000090: 2280 5a3f 2bdb 8c3f 95e4 623f 1755 813f
000000a0: 9f71 773f 0c03 8e3f 2c05 743f 179b 593f
000000b0: caeb 583f 298f 7c3f ec89 953f 6b29 683f
000000c0: 0138 5e3f a6fc 703f e21c 753f 11b7 693f
000000d0: 28c9 813f 82d2 803f 2d35 623f cbde 683f
000000e0: 3965 8c3f 0671 6e3f 7547 623f ee6e 503f
000000f0: 1397 803f c054 573f 77af 753f 8c04 8f3f

bn4.bias f4 [64]
0.15224946 0.017368509 0.015129857 -0.11602826 -0.100179546 0.032247 -0.15936083 -0.2248305
-0.34791234 -0.17538099 -0.14322034 -0.05605572 -0.03769172 -0.09427333 -0.14450805 -0.085790746
-0.11360714 0.042429402 -0.14838707 -0.23459193 0.09002926 0.06774158 -0.17154223 -0.050477162
-0.10841421 -0.15440756 -0.09368163 -0.17851645 -0.08158812 -0.13150197 -0.19840284 -0.135842
0.16282 -0.06741954 -0.038706765 -0.092354394 -0.03076651 -0.05736874 -0.1328899 0.043205187
-0.092640206 -0.24505791 -0.12780951 0.05163831 -0.2621824 -0.019773375 0.049114354 0.0522848
-0.027493756 -0.03056526 -0.033325005 -0.062486067 0.024632595 -0.035139702 -0.11199374 -0.1994805
-0.05911883 -0.19602023 0.016265383 -0.15136623 -0.30057693 -0.07729543 0.0113215335 0.1929697
00000000: 48e7 1b3e 6748 8e3c 38e3 773c 39a0 edbd
00000010: ef2a cdbd 6e15 043d 7c2f 23be f739 66be
00000020: 9121 b2be 1397 33be 5aa8 12be af9a 65bd
00000030: a262 1abd 6012 c1bd ebf9 13be 0fb3 afbd
00000040: dcaa e8bd 74ca 2d3d c8f2 17be de38 70be
00000050: 4361 b83d 19bc 8a3d c4a8 2fbe 24c1 4ebd
00000060: 4508 debd 041d 1ebe 28dc bfbd 04cd 36be
00000070: ac17 a7bd 74a8 06be 1d2a 4bbe 2a1a 0bbe
00000080: 49ba 263e 4113 8abd fc8a 1ebd 4d24 bdbd
00000090: 0c0a fcbc 7cfb 6abd 4a14 08be ecf7 303d
000000a0: 26ba bdbd 76f0 7abe 7fe0 02be b182 533d
000000b0: c63c 86be c6fb a1bc 222c 493d 9628 563d
000000c0: 963a e1bc ff63 fabc cd7f 08bd 64f1 7fbd
000000d0: 4cca c93c a6ee 0fbd f95c e5bd 9e44 4cbe
000000e0: 9626 72bd 87b9 48be fb3e 853c c0ff 1abe
000000f0: 38e5 99be 114d 9ebd f47d 393c d999 453e

conv5.fc.weight f4 [64, 64, 1]
-0.11756563 -0.04861621 0.22958502 0.0821153 -0.008407611 0.12823373 0.06957263 -0.080663465
-0.08854718 -0.16871996 -0.04009338 0.08208773 0.16969012 -0.11968284 -0.39883992 0.16034126
-0.07549572 0.22583032 -0.061385635 -0.014757014 0.043217205 -0.023559934 0.13896392 0.08153094
-0.05300484 0.12263539 -0.031198172 0.06869721 -0.1269956 -0.040990777 -0.095456466 -0.064700246
-0.09916977 -0.034948345 -0.12494184 0.08580118 -0.035731927 0.16493706 0.0397677 -0.1906594
-0.109885685 -0.13970286 0.006722169 0.13443787 0.17833742 0.13858773 -0.03346542 0.034079753
-0.009551025 -0.011703064 0.017249448 -0.038334813 0.10813417 -0.047964945 0.009011837 -0.082571715
-0.11130202 -0.2023695 -0.026507223 0.1983092 0.023669481 0.039760124 -0.27380502 0.20133075
-0.07977671 -0.13475126 0.015758654 -0.075124234 0.05594722 -0.06296244 -0.037272345 -0.05914233
-0.075099304 0.01638894 -0.14784983 -0.074906655 -0.046919778 -0.14893883 0.05368561 -0.014060586
-0.04177416 0.07333853 0.081504345 -0.107543014 0.029858347 0.24578881 0.03507876 0.06961915
-0.37613907 -0.034460116 -0.051095165 0.10916226 0.008876559 -0.22474496 0.0812318 -0.18907608
0.026085146 -0.26391333 -0.1831991 -0.097520605 0.12360652 -0.05334576 0.2576805 0.06680453
0.14076939 0.019834906 -0.24021062 -0.12637857 -0.16934852 0.0364563 -0.008817586 0.06272708
-0.17967707 0.005549476 0.12526806 -0.017048713 0.118264556 -0.23361515 -0.03733725 0.12069974
-0.1643995 0.09255002 -0.09035912 -0.12553468 -0.18125482 -0.17350274 0.08847152 -0.025796687
-0.038041726 0.1703262 -0.09703338 0.009185916 -0.013813343 -0.2671002 -0.2475153 0.30670455
0.021255694 0.06311384 -0.021401592 0.018437857 0.050828163 0.04290865 0.1357241 0.045951843
-0.014467459 -0.16179118 -0.12341209 0.044618405 -0.35632938 -0.013559945 0.037260655 -0.008450385
0.0066145216 0.090717435 0.061912443 -0.13356948 -0.17205493 0.11197624 0.20397155 -0.037556447
-0.039564084 0.120841034 0.18806109 0.26265752 -0.13586411 0.090779185 0.07510782 0.14129443
0.06280087 0.006585686 0.03792928 -0.068770654 -0.15667304 0.14877471 0.077270605 0.059065223
-0.009225407 -0.08659693 -0.10603752 -0.03138316 -0.21770759 0.07336976 -0.08340608 0.035926707
0.257399 -0.05801187 0.022604937 -0.021676794 0.09733818 -0.20164548 -0.06428313 0.1341254
-0.023500126 0.17241664 0.1675208 -0.285129 0.10874492 0.06740057 0.04811595 0.079270005
-0.09349738 0.09772489 0.12907296 -0.1801156 0.07557317 -0.054804478 -0.10591166 -0.2785881
-0.03587492 -0.09682288 0.14426501 0.009787323 0.060066037 -0.04478189 0.14033574 0.03740226
0.005816056 0.054231167 0.042841703 -0.06128078 -0.041877687 -0.16361786 0.07468617 -0.036812678
0.1330799 -0.008826378 -0.04760916 -0.07380464 -0.07307294 -0.035999164 -0.18705182 -0.01737215
0.16803344 0.0030508689 -0.23168164 0.055466767 0.09376573 0.10498354 -0.16238365 0.10006398
-0.06506725 0.12641917 0.036097206 -0.3129013 0.16056345 0.06522042 0.044197913 -0.04026017
-0.11679163 0.23492548 0.18219925 -0.13756266 -0.03490154 -0.044186957 -0.035763457 -0.14235184
00000000: 40c6 f0bd cb21 47bd 5618 6b3e 112c a83d
00000010: 14c0 09bc b44f 033e 187c 8e3d e332 a5bd
00000020: 3958 b5bd edc4 2cbe f538 24bd 9d1d a83d
00000030: 3fc3 2d3e 471c f5bd bf34 ccbe 8030 243e
00000040: 809d 9abd 1040 673e 816f 7bbd 67c7 71bc
00000050: 8604 313d c300 c1bc 8f4c 0e3e b2f9 a63d
00000060: 9a1b 59bd 4328 fb3d 4f93 ffbc 1fb1 8c3d
00000070: 220b 02be f2e5 27bd ae7e c3bd 9081 84bd
00000080: 8519 cbbd ff25 0fbd 82e1 ffbd 87b8 af3d
00000090: a45b 12bd 43e5 283e 75e3 223d 383c 43be
000000a0: bf0b e1bd 440e 0fbe a445 dc3b 15aa 093e
000000b0: 169e 363e f1e9 0d3e 0913 09bd 3697 0b3d
000000c0: e77b 1cbc 35be 3fbc b74e 8d3c f704 1dbd
000000d0: 7375 dd3d e476 44bd 62a6 133c 5c1b a9bd
000000e0: 50f2 e3bd f339 4fbe ad25 d9bc 9111 4b3e
000000f0: 80e6 c13c 83db 223d 2c30 8cbe a629 4e3e
00000100: f961 a3bd 3cfc 09be 4b18 813c bcda 99bd
00000110: ea28 653d 74f2 80bd e3aa 18bd 3a3f 72bd
00000120: aacd 99bd 1942 863c f265 17be a968 99bd
00000130: f42e 40bd 6c83 18be 71e5 5b3d 5f5e 66bc
00000140: 621b 2bbd 8332 963d c0eb a63d 833f dcbd
00000150: 7e99 f43c 10b0 7b3e bfae 0f3d 7c94 8e3d
00000160: 4d95 c0be 0d26 0dbd 2a49 51bd 7790 df3d
00000170: fd6e 113c 8b23 66be dc5c a63d 299d 41be
00000180: 84b0 d53c a61f 87be 8b98 3bbe e2b8 c7bd
00000190: 6a25 fd3d 1581 5abd b3ee 833e d0d0 883d
000001a0: da25 103e d07c a23c c6f9 75be 6269 01be
000001b0: b369 2dbe 3453 153d a377 10bc 0e77 803d
000001c0: 44fd 37be 61d8 b53b 4546 003e bea9 8bbc
000001d0: b034 f23d cf38 6fbe f2ee 18bd 6d31 f73d
000001e0: 5858 28be dd8a bd3d 340e b9bd 2a8c 00be
000001f0: dd9a 39be b4aa 31be 8e30 b53d 9353 d3bc
00000200: a4d1 1bbd fe69 2e3e 70b9 c6bd 8680 163c
00000210: 5c51 62bc 5bc1 88be a774 7dbe 6108 9d3e
00000220: 6c20 ae3c d441 813d 6452 afbc fd0a 973c
00000230: 3131 503d fbc0 2f3d 42fb 0a3e 0038 3c3d
00000240: ec08 6dbc 96ac 25be 7abf fcbd cac1 363d
00000250: ce70 b6be 882a 5ebc a19e 183d 7c73 0abc
00000260: a1be d83b 10ca b93d e797 7d3d 70c6 08be
00000270: 2b2f 30be cd53 e53d ebdd 503e cad4 19bd
00000280: f30d 22bd 817b f73d 1693 403e 0c7b 863e
00000290: f61f 0bbe 70ea b93d 21d2 993d 7daf 103e
000002a0: be9d 803d bdcc d73b bc5b 1b3d a1d7 8cbd
000002b0: e66e 20be 6658 183e 0d40 9e3d 60ee 713d
000002c0: 2926 17bc bb59 b1bd 332a d9bd a18b 00bd
000002d0: bdee 5ebe e242 963d cfd0 aabd e227 133d
000002e0: cdc9 833e db9d 6dbd fd2d b93c 8893 b1bc
000002f0: 3d59 c73d 277c 4ebe e0a6 83bd 2b58 093e
00000300: 5683 c0bc fd8d 303e 938a 2b3e 6efc 91be
00000310: a8b5 de3d 4f09 8a3d 3b15 453d 5058 a23d
00000320: 8e7b bfbd fd23 c83d b42b 043e 3970 38be
00000330: 1bc6 9a3d a97a 60bd 36e8 d8bd 19a3 8ebe
00000340: 95f1 12bd 134b c6bd 35ba 133e 025b 203c
00000350: ce07 763d 376d 37bd 2cb4 0f3e 1d33 193d
00000360: 9d94 be3b 8021 5e3d c87a 2f3d 8e01 7bbd
00000370: f087 2bbd 718b 27be 10f5 983d e4c8 16bd
00000380: 1946 083e 839c 10bc d301 43bd e326 97bd
00000390: 44a7 95bd dc73 13bd 838a 3fbe 0a50 8ebc
000003a0: f510 2c3e 16f1 473b f43d 6dbe 1f31 633d
000003b0: 3f08 c03d 9c01 d73d e647 26be 58ee cc3d
000003c0: fa41 85bd 0774 013e aada 133d 9934 a0be
000003d0: bf6a 243e 4992 853d df08 353d d9e7 24bd
000003e0: 7330 efbd 4e90 703e 7192 3a3e 3add 0cbe
000003f0: ebf4 0ebd 62fd 34bd b47c 12bd aec4 11be

bn5.weight f4 [64]
0.9730062 0.9446014 0.7883703 0.8442703 0.851156 0.871292 0.9328854 0.8854098
0.9026566 0.8484857 1.0668836 1.0522226 0.80643183 1.000876 0.8720518 0.7552986
0.9823658 0.89692795 0.88747776 0.85993826 0.8141972 0.77251256 0.991348 0.93322366
0.8937048 0.93493885 0.8760492 0.8862144 0.8510701 0.83296597 0.8026869 0.9857374
0.8348012 0.8361318 0.8699739 0.7040334 0.8783196 0.80562305 0.9306405 1.0531108
0.9603814 0.8490706 0.9214359 0.73139167 0.9324912 0.9908163 0.96587497 0.8709936
0.9044102 0.9176989 0.8856306 0.9385847 0.88018864 0.88368136 0.8698172 1.0143533
0.8114481 1.0346138 0.9340901 0.91989464 0.88453585 0.92463803 0.9510005 0.80206645
00000000: ef16 793f 66d1 713f a3d2 493f 1922 583f
00000010: 5ce5 593f fe0c 5f3f 94d1 6e3f 37aa 623f
00000020: 8114 673f 5c36 593f a48f 883f 3baf 863f
00000030: 5172 4e3f b41c 803f c93e 5f3f 405b 413f
00000040: 537c 7b3f 129d 653f be31 633f ea24 5c3f
00000050: 3a6f 503f 62c3 453f fcc8 7d3f bfe7 6e3f
00000060: d6c9 643f 2758 6f3f c344 603f f2de 623f
00000070: bbdf 593f 423d 553f e47c 4d3f 4959 7c3f
00000080: 88b5 553f bc0c 563f 9cb6 5e3f 883b 343f
00000090: 8ed9 603f 503d 4e3f 753e 6e3f 56cc 863f
000000a0: 8edb 753f b15c 593f 39e3 6b3f 7c3c 3b3f
000000b0: beb7 6e3f 23a6 7d3f 9543 773f 70f9 5e3f
000000c0: 6d87 673f 51ee 6a3f b0b8 623f 1647 703f
000000d0: 0b54 613f f138 623f 57ac 5e3f 54d6 813f
000000e0: 10bb 4f3f 3a6e 843f 8720 6f3f 377e 6b3f
000000f0: f170 623f 14b5 6c3f c574 733f 3a54 4d3f

bn5.bias f4 [64]
0.095354825 -0.20155552 -0.100092486 -0.08672237 -0.32105553 -0.11543322 -0.31423083 -0.36869612
-0.16337769 -0.30962485 -0.100783326 -0.019133909 -0.3252149 -0.05313207 -0.09665887 -0.22232965
-0.13493021 -0.12406665 -0.3710996 -0.33852497 0.07999683 -0.08413618 -0.13545902 -0.017051036
-0.35480383 -0.27821228 -0.080862015 -0.12781204 -0.10423268 -0.25242358 -0.28278857 -0.36396843
-0.057169303 -0.12368643 -0.21490954 -0.21846144 -0.38481706 -0.21435018 0.041546322 -0.12303113
-0.1597891 -0.31332287 -0.027937911 -0.21056233 -0.17636004 -0.17902812 0.022705808 -0.22240625
-0.032398872 -0.1575387 -0.082638286 -0.09580886 -0.09017435 -0.025063269 -0.03804227 -0.10259735
-0.17419004 -0.070316285 -0.28513077 -0.22297092 -0.18871534 -0.015453057 -0.20087646 0.037615493
00000000: 6449 c33d 9264 4ebe 4afd ccbd 7f9b b1bd
00000010: 6461 a4be 4168 ecbd dde2 a0be bdc5 bcbe
00000020: 7b4c 27be 2687 9ebe 7d67 cebd b7be 9cbc
00000030: 9182 a6be 03a1 59bd 16f5 c5bd 62aa 63be
00000040: 252b 0abe a816 febd c400 bebe 2553 adbe
00000050: 61d5 a33d 974f acbd c5b5 0abe 9dae 8bbc
00000060: d9a8 b5be d771 8ebe fc9a a5bd 29e1 02be
00000070: f177 d5bd aa3d 81be aac9 90be 125a babe
00000080: 5c2a 6abd 504f fdbd 3f11 5cbe 5bb4 5fbe
00000090: be06 c5be 9d7e 5bbe 7a2c 2a3d bff7 fbbd
000000a0: c19f 23be db6b a0be 0cde e4bc a79d 57be
000000b0: ba97 34be 2653 37be 8801 ba3c 77be 63be
000000c0: aeb4 04bd d351 21be 433e a9bd 7037 c4bd
000000d0: 54ad b8bd 7c51 cdbc 36d2 1bbd 8f1e d2bd
000000e0: e05e 32be fc01 90bd a9fc 91be 7d52 64be
000000f0: 983e 41be d22e 7dbc 8fb2 4dbe b412 1a3d
